…
2019-09-23 16:33:57.578895: I tensorflow/stream_executor/platform/default/dso_loader.cc:42] Successfully opened dynamic library libcublas.so.9.2
2019-09-23 16:33:57.715355: I tensorflow/stream_executor/platform/default/dso_loader.cc:42] Successfully opened dynamic library libcudnn.so.7
__________________________________________________________________________________________________
Layer (type)                    Output Shape         Param #     Connected to                     
==================================================================================================
input_embed (InputLayer)        (None, 800)          0                                            
__________________________________________________________________________________________________
embedding_1 (Embedding)         (None, 800, 128)     2560        input_embed[0][0]                
__________________________________________________________________________________________________
input_extra (InputLayer)        (None, 800, 20)      0                                            
__________________________________________________________________________________________________
concatenate_1 (Concatenate)     (None, 800, 148)     0           embedding_1[0][0]                
                                                                 input_extra[0][0]                
__________________________________________________________________________________________________
conv1 (Conv1D)                  (None, 794, 128)     132736      concatenate_1[0][0]              
__________________________________________________________________________________________________
drop1 (Dropout)                 (None, 794, 128)     0           conv1[0][0]                      
__________________________________________________________________________________________________
conv2 (Conv1D)                  (None, 790, 128)     82048       drop1[0][0]                      
__________________________________________________________________________________________________
drop2 (Dropout)                 (None, 790, 128)     0           conv2[0][0]                      
__________________________________________________________________________________________________
conv3 (Conv1D)                  (None, 784, 128)     114816      drop2[0][0]                      
__________________________________________________________________________________________________
drop3 (Dropout)                 (None, 784, 128)     0           conv3[0][0]                      
__________________________________________________________________________________________________
maxpooling (MaxPooling1D)       (None, 49, 128)      0           drop3[0][0]                      
__________________________________________________________________________________________________
flatten_1 (Flatten)             (None, 6272)         0           maxpooling[0][0]                 
__________________________________________________________________________________________________
dense1 (Dense)                  (None, 256)          1605888     flatten_1[0][0]                  
__________________________________________________________________________________________________
batch_normalization_1 (BatchNor (None, 256)          1024        dense1[0][0]                     
__________________________________________________________________________________________________
dense_1 (Dense)                 (None, 9)            2313        batch_normalization_1[0][0]      
==================================================================================================
Total params: 1,941,385
Trainable params: 1,940,873
Non-trainable params: 512
__________________________________________________________________________________________________
None
Train on 1763 samples, validate on 441 samples
Epoch 1/200

 256/1763 [===>..........................] - ETA: 48s - loss: 31.9004 - acc: 0.0859
…
