…
2019-07-02 11:48:04.006199: I tensorflow/core/common_runtime/gpu/gpu_device.cc:1115] Created TensorFlow device (/job:localhost/replica:0/task:0/device:GPU:0 with 10725 MB memory) -> physical GPU (device: 0, name: Tesla K40m, pci bus id: 0000:83:00.0, compute capability: 3.5)
2019-07-02 11:48:08.535342: I tensorflow/stream_executor/dso_loader.cc:152] successfully opened CUDA library libcublas.so.9.2 locally
__________________________________________________________________________________________________
Layer (type)                    Output Shape         Param #     Connected to                     
==================================================================================================
input_embed (InputLayer)        (None, 800)          0                                            
__________________________________________________________________________________________________
embedding_1 (Embedding)         (None, 800, 128)     2560        input_embed[0][0]                
__________________________________________________________________________________________________
input_extra (InputLayer)        (None, 800, 20)      0                                            
__________________________________________________________________________________________________
concatenate_1 (Concatenate)     (None, 800, 148)     0           embedding_1[0][0]                
                                                                 input_extra[0][0]                
__________________________________________________________________________________________________
conv1 (Conv1D)                  (None, 796, 64)      47424       concatenate_1[0][0]              
__________________________________________________________________________________________________
batch_normalization_1 (BatchNor (None, 796, 64)      256         conv1[0][0]                      
__________________________________________________________________________________________________
activation_1 (Activation)       (None, 796, 64)      0           batch_normalization_1[0][0]      
__________________________________________________________________________________________________
drop1 (Dropout)                 (None, 796, 64)      0           activation_1[0][0]               
__________________________________________________________________________________________________
conv2 (Conv1D)                  (None, 786, 64)      45120       drop1[0][0]                      
__________________________________________________________________________________________________
batch_normalization_2 (BatchNor (None, 786, 64)      256         conv2[0][0]                      
__________________________________________________________________________________________________
activation_2 (Activation)       (None, 786, 64)      0           batch_normalization_2[0][0]      
__________________________________________________________________________________________________
drop2 (Dropout)                 (None, 786, 64)      0           activation_2[0][0]               
__________________________________________________________________________________________________
maxpooling (MaxPooling1D)       (None, 25, 64)       0           drop2[0][0]                      
__________________________________________________________________________________________________
gru1 (GRU)                      (None, 25, 100)      49500       maxpooling[0][0]                 
__________________________________________________________________________________________________
gru2 (GRU)                      (None, 25, 400)      558000      maxpooling[0][0]                 
__________________________________________________________________________________________________
concatenate_2 (Concatenate)     (None, 25, 500)      0           gru1[0][0]                       
                                                                 gru2[0][0]                       
__________________________________________________________________________________________________
gru3 (GRU)                      (None, 25, 400)      1081200     concatenate_2[0][0]              
__________________________________________________________________________________________________
gru4 (GRU)                      (None, 25, 100)      180300      concatenate_2[0][0]              
__________________________________________________________________________________________________
concatenate_3 (Concatenate)     (None, 25, 500)      0           gru3[0][0]                       
                                                                 gru4[0][0]                       
__________________________________________________________________________________________________
concatenate_4 (Concatenate)     (None, 25, 564)      0           maxpooling[0][0]                 
                                                                 concatenate_3[0][0]              
__________________________________________________________________________________________________
time_distributed_1 (TimeDistrib (None, 25, 256)      144640      concatenate_4[0][0]              
__________________________________________________________________________________________________
batch_normalization_3 (BatchNor (None, 25, 256)      1024        time_distributed_1[0][0]         
__________________________________________________________________________________________________
activation_3 (Activation)       (None, 25, 256)      0           batch_normalization_3[0][0]      
__________________________________________________________________________________________________
flatten_1 (Flatten)             (None, 6400)         0           activation_3[0][0]               
__________________________________________________________________________________________________
dense_1 (Dense)                 (None, 9)            57609       flatten_1[0][0]                  
==================================================================================================
Total params: 2,167,889
Trainable params: 2,167,121
Non-trainable params: 768
__________________________________________________________________________________________________
None
Train on 1761 samples, validate on 441 samples
Epoch 1/150

  64/1761 [>.............................] - ETA: 2:38 - loss: 7.2251 - acc: 0.0156
…
